
Autoencoder summary:
Model: "model"
_________________________________________________________________
Layer (type)                 Output Shape              Param #   
=================================================================
input_1 (InputLayer)         [(None, 784)]             0         
_________________________________________________________________
dense (Dense)                (None, 256)               200960    
_________________________________________________________________
dense_1 (Dense)              (None, 128)               32896     
_________________________________________________________________
dense_2 (Dense)              (None, 64)                8256      
_________________________________________________________________
dense_3 (Dense)              (None, 32)                2080      
_________________________________________________________________
dense_4 (Dense)              (None, 64)                2112      
_________________________________________________________________
dense_5 (Dense)              (None, 128)               8320      
_________________________________________________________________
dense_6 (Dense)              (None, 256)               33024     
_________________________________________________________________
dense_7 (Dense)              (None, 784)               201488    
=================================================================
Total params: 489,136
Trainable params: 489,136
Non-trainable params: 0
_________________________________________________________________
None
Normal MNIST train shape:  (60000, 784)
Normal MNIST test shape:  (10000, 784)
Epoch 1/100
60/60 - 1s - loss: 0.3414 - acc: 0.0088 - val_loss: 0.2543 - val_acc: 0.0137
