Model: "model"
_________________________________________________________________
Layer (type)                 Output Shape              Param #   
=================================================================
input_1 (InputLayer)         [(None, 28, 28, 1)]       0         
_________________________________________________________________
conv2d (Conv2D)              (None, 28, 28, 16)        160       
_________________________________________________________________
max_pooling2d (MaxPooling2D) (None, 14, 14, 16)        0         
_________________________________________________________________
conv2d_1 (Conv2D)            (None, 14, 14, 8)         1160      
_________________________________________________________________
max_pooling2d_1 (MaxPooling2 (None, 7, 7, 8)           0         
_________________________________________________________________
conv2d_2 (Conv2D)            (None, 7, 7, 4)           292       
_________________________________________________________________
max_pooling2d_2 (MaxPooling2 (None, 4, 4, 4)           0         
_________________________________________________________________
conv2d_3 (Conv2D)            (None, 4, 4, 4)           148       
_________________________________________________________________
up_sampling2d (UpSampling2D) (None, 8, 8, 4)           0         
_________________________________________________________________
conv2d_4 (Conv2D)            (None, 8, 8, 8)           296       
_________________________________________________________________
up_sampling2d_1 (UpSampling2 (None, 16, 16, 8)         0         
_________________________________________________________________
conv2d_5 (Conv2D)            (None, 16, 16, 16)        1168      
_________________________________________________________________
up_sampling2d_2 (UpSampling2 (None, 32, 32, 16)        0         
_________________________________________________________________
conv2d_6 (Conv2D)            (None, 32, 32, 1)         145       
=================================================================
Total params: 3,369
Trainable params: 3,369
Non-trainable params: 0
_________________________________________________________________
Normal MNIST train shape:  (60000, 28, 28, 1)
Normal MNIST test shape:  (10000, 28, 28, 1)
Epoch 1/100
