Model: "model"
_________________________________________________________________
Layer (type)                 Output Shape              Param #   
=================================================================
input_1 (InputLayer)         [(None, 32, 32, 3)]       0         
_________________________________________________________________
conv2d (Conv2D)              (None, 32, 32, 16)        448       
_________________________________________________________________
max_pooling2d (MaxPooling2D) (None, 16, 16, 16)        0         
_________________________________________________________________
conv2d_1 (Conv2D)            (None, 16, 16, 32)        4640      
_________________________________________________________________
max_pooling2d_1 (MaxPooling2 (None, 8, 8, 32)          0         
_________________________________________________________________
conv2d_2 (Conv2D)            (None, 8, 8, 16)          4624      
_________________________________________________________________
max_pooling2d_2 (MaxPooling2 (None, 4, 4, 16)          0         
_________________________________________________________________
conv2d_3 (Conv2D)            (None, 4, 4, 8)           1160      
_________________________________________________________________
max_pooling2d_3 (MaxPooling2 (None, 2, 2, 8)           0         
_________________________________________________________________
conv2d_4 (Conv2D)            (None, 2, 2, 8)           584       
_________________________________________________________________
up_sampling2d (UpSampling2D) (None, 4, 4, 8)           0         
_________________________________________________________________
conv2d_5 (Conv2D)            (None, 4, 4, 16)          1168      
_________________________________________________________________
up_sampling2d_1 (UpSampling2 (None, 8, 8, 16)          0         
_________________________________________________________________
conv2d_6 (Conv2D)            (None, 8, 8, 32)          4640      
_________________________________________________________________
up_sampling2d_2 (UpSampling2 (None, 16, 16, 32)        0         
_________________________________________________________________
conv2d_7 (Conv2D)            (None, 16, 16, 16)        4624      
_________________________________________________________________
up_sampling2d_3 (UpSampling2 (None, 32, 32, 16)        0         
_________________________________________________________________
conv2d_8 (Conv2D)            (None, 32, 32, 3)         435       
=================================================================
Total params: 22,323
Trainable params: 22,323
Non-trainable params: 0
_________________________________________________________________
CIFAR10 shape:  (50000, 32, 32, 3)
CIFAR10 test shape:  (10000, 32, 32, 3)
Epoch 1/300
50/50 - 10s - loss: 0.6678 - acc: 0.3983 - val_loss: 0.6445 - val_acc: 0.4429
Epoch 2/300
50/50 - 10s - loss: 0.6337 - acc: 0.4523 - val_loss: 0.6273 - val_acc: 0.4590
…
