
Autoencoder summary:
Model: "model"
_________________________________________________________________
Layer (type)                 Output Shape              Param #   
=================================================================
input_1 (InputLayer)         [(None, 784)]             0         
_________________________________________________________________
dense (Dense)                (None, 128)               100480    
_________________________________________________________________
dense_1 (Dense)              (None, 64)                8256      
_________________________________________________________________
dense_2 (Dense)              (None, 100)               6500      
_________________________________________________________________
dense_3 (Dense)              (None, 64)                6464      
_________________________________________________________________
dense_4 (Dense)              (None, 128)               8320      
_________________________________________________________________
dense_5 (Dense)              (None, 784)               101136    
=================================================================
Total params: 231,156
Trainable params: 231,156
Non-trainable params: 0
_________________________________________________________________
None
Normal MNIST train shape:  (60000, 784)
Normal MNIST test shape:  (10000, 784)
Epoch 1/100
60/60 - 1s - loss: 0.3505 - acc: 0.0075 - val_loss: 0.2498 - val_acc: 0.0084
Epoch 2/100
60/60 - 1s - loss: 0.2251 - acc: 0.0081 - val_loss: 0.1936 - val_acc: 0.0085
…
