Model: "model"
_________________________________________________________________
Layer (type)                 Output Shape              Param #   
=================================================================
input_1 (InputLayer)         [(None, 32, 32, 3)]       0         
_________________________________________________________________
conv2d (Conv2D)              (None, 32, 32, 16)        448       
_________________________________________________________________
conv2d_1 (Conv2D)            (None, 32, 32, 8)         1160      
_________________________________________________________________
conv2d_2 (Conv2D)            (None, 32, 32, 8)         584       
_________________________________________________________________
conv2d_3 (Conv2D)            (None, 32, 32, 8)         584       
_________________________________________________________________
conv2d_4 (Conv2D)            (None, 32, 32, 8)         584       
_________________________________________________________________
conv2d_5 (Conv2D)            (None, 32, 32, 16)        1168      
_________________________________________________________________
conv2d_6 (Conv2D)            (None, 32, 32, 3)         435       
=================================================================
Total params: 4,963
Trainable params: 4,963
Non-trainable params: 0
_________________________________________________________________
CIFAR10 shape:  (50000, 32, 32, 3)
CIFAR10 test shape:  (10000, 32, 32, 3)
Epoch 1/50
1/5 [=====>........................] - ETA: 10s - loss: 0.0641 - acc: 0.2697
…
