Model: "model"
_________________________________________________________________
Layer (type)                 Output Shape              Param #   
=================================================================
input_1 (InputLayer)         [(None, 28, 28, 1)]       0         
_________________________________________________________________
conv2d (Conv2D)              (None, 28, 28, 16)        160       
_________________________________________________________________
conv2d_1 (Conv2D)            (None, 28, 28, 8)         1160      
_________________________________________________________________
conv2d_2 (Conv2D)            (None, 28, 28, 8)         584       
_________________________________________________________________
conv2d_3 (Conv2D)            (None, 28, 28, 8)         584       
_________________________________________________________________
conv2d_4 (Conv2D)            (None, 28, 28, 8)         584       
_________________________________________________________________
conv2d_5 (Conv2D)            (None, 28, 28, 16)        1168      
_________________________________________________________________
conv2d_6 (Conv2D)            (None, 28, 28, 1)         145       
=================================================================
Total params: 4,385
Trainable params: 4,385
Non-trainable params: 0
_________________________________________________________________
Normal MNIST train shape:  (60000, 28, 28, 1)
Normal MNIST test shape:  (10000, 28, 28, 1)
 1/12 [=>............................] - ETA: 11s - loss: 0.2311 - acc: 0.5876
…
