TF log level = 2

Config:

Test:  UNIVERSE
Max length:  1000
Sentences per chunk:  4
Max words:  10000
Training split:  0.8

Hyper-parameters
Epochs:  100
Batch size:  128
Model:  CONV1D

Data:
X train shape:  (8861, 1000)
Y train shape:  (8861,)
X val shape:  (2216, 1000)
Y val shape:  (2216,)
Model: "sequential"
_________________________________________________________________
Layer (type)                 Output Shape              Param #   
=================================================================
embedding (Embedding)        (None, 1000, 128)         1280000   
_________________________________________________________________
conv1d (Conv1D)              (None, 994, 32)           28704     
_________________________________________________________________
max_pooling1d (MaxPooling1D) (None, 198, 32)           0         
_________________________________________________________________
conv1d_1 (Conv1D)            (None, 192, 32)           7200      
_________________________________________________________________
global_max_pooling1d (Global (None, 32)                0         
_________________________________________________________________
dense (Dense)                (None, 3)                 99        
=================================================================
Total params: 1,316,003
Trainable params: 1,316,003
Non-trainable params: 0
_________________________________________________________________
Epoch 1/100
 1/70 [..............................] - ETA: 3:00 - loss: 1.0956 - acc: 0.3359 2/70 [....
…
